ressources/model_url.pth (torch, 233615 bytes, 7 tensors)

weight f4 [256, 63]
000000 eb ba 81 bd 00 bc 19 3d db c9 07 3d b2 12 53 3d
       -0.0633448 0.037532806 0.03315149 0.0515315
000010 14 83 ea 3d 76 f2 cf bd 17 b0 0d be 21 8d 95 bd
       0.114507824 -0.10153668 -0.13836704 -0.07302309
000020 5c a1 5a bd 4f 2e d1 bc e0 d2 3e bd 1a d8 8d bc
       -0.05337654 -0.025534777 -0.046587825 -0.01731496
000030 97 7a b3 3c d5 8c bd bd e4 a8 6f bd 84 12 d8 bd
       0.021909041 -0.09255377 -0.058510676 -0.105504066
000040 cc f8 af 3d 04 eb 1a 3c c9 0d c2 bb 08 c6 ee 3d
       0.08592376 0.009455446 -0.0059220535 0.11658865
000050 7e f9 b3 3d dc a6 94 3c 1a 9a 00 be bb 57 9c bd
       0.08787821 0.018145971 -0.12558785 -0.07633921
000060 12 06 0a 3d dd 31 63 3d eb 5c 28 bd 9b 1e 60 3a
       0.033697195 0.055467475 -0.04110424 0.00085494824
000070 b1 62 0a 3d 4d a6 31 3d e9 e2 b5 bc 7e df d7 bd
       0.033785526 0.043371487 -0.022202926 -0.105406746
000080 2f df 69 3d 44 c6 88 3d 00 c5 12 3d a2 f5 fd 3c
       0.05709761 0.06678441 0.035832405 0.031000916
000090 84 5c ef bb 8b 39 2f 3d 07 3e b4 3d d4 cc 07 3e
       -0.00730473 0.042779487 0.08800893 0.1326173
0000a0 bb b9 01 bd e1 53 1e 3d da 80 e3 3d 5b e6 cb 3d
       -0.031671267 0.038654212 0.11108561 0.09956046
0000b0 67 9e a8 bd ff 96 5a 3c 3e cc 14 be f0 94 8a bc
       -0.08233338 0.013341664 -0.14531037 -0.016916722
0000c0 0c a5 de bc 60 de 0e be 9c ef ac bd e9 bf 8d 3d
       -0.02717831 -0.13952017 -0.08444139 0.069213696
0000d0 c5 c5 cc bd 53 91 83 bd 7a 6b 72 bd 8b 36 31 3d
       -0.09998659 -0.06424203 -0.05918453 0.043264907
0000e0 5d 77 5f 3c 32 c5 86 3d de 62 2d 3d e3 02 01 be
       0.013639298 0.06580581 0.042330615 -0.12598757
0000f0 72 e7 f2 3d 9d aa bc bc 9c 08 89 3b 63 99 8a bd
       0.11860551 -0.023030574 0.0041819345 -0.067675374
000100 36 34 33 3e 81 a0 9e 3d a1 26 21 3d 1d 10 85 bd
       0.17500386 0.077454574 0.03934348 -0.06497214
000110 d5 43 84 3d ca 96 e4 3d 04 cb 8f bd 8d f6 f2 bd
       0.064582504 0.11161573 -0.07021144 -0.11863432
000120 c4 9d cc bd e5 79 1c be 2d 16 86 3d 8b aa 05 3d
       -0.09991029 -0.15280874 0.065471984 0.032633346
000130 dc 80 71 bd c8 3a fa bd 24 05 94 bc 63 54 4a bc
       -0.05896078 -0.12218243 -0.018068857 -0.012349221
000140 81 9d 64 3d 2a 93 a6 3d ef 20 c9 3c b9 d4 c6 bd
       0.05581427 0.08133538 0.024551837 -0.097085424
000150 f9 c0 b1 b9 cb 94 04 3e c7 c8 01 3e 06 15 a0 bd
       -0.00033903847 0.12947385 0.12674247 -0.0781651
000160 99 30 ac 3d a9 a1 48 bc 7b 68 fa 3d 07 6c de 3c
       0.08407707 -0.012245574 0.12226959 0.02715112
000170 b2 95 e0 bc 14 4a 60 3d 90 08 42 3d 45 3b e1 bc
       -0.02741513 0.054758146 0.047371447 -0.027494082
000180 10 30 10 bd 5b 5e f8 ba 46 d6 5a 3d 07 11 d0 bd
       -0.035202086 -0.0018949019 0.053427003 -0.10159498
000190 1c b8 1c bb b6 37 4e bc 1a ee 79 3d 37 73 8c bd
       -0.0023913449 -0.012586525 0.061018087 -0.06857913
0001a0 23 bc 9c bc 21 ec 2d be 32 7f 52 3e f1 98 81 bd
       -0.01913268 -0.16984607 0.20556334 -0.063279994
0001b0 f1 fb 13 3e 85 19 4c 3d 83 ab 86 3b a2 60 4d 3d
       0.14451577 0.049829025 0.0041098013 0.050140984
0001c0 f2 3a 2a 3d db e4 e6 3c cd 9d dd bd 69 88 11 3d
       0.04156012 0.028185299 -0.10821114 0.03553048
0001d0 68 5f d5 bd a2 03 54 bd 89 09 c2 3c 3a 59 9d 3d
       -0.10418588 -0.051761277 0.023686187 0.07683034
0001e0 96 ee 16 3d 88 a1 92 bd 54 cb b3 bc 1f b3 ab 3d
       0.036848627 -0.07159716 -0.02194754 0.08383774
0001f0 cd c4 b6 bc 64 f9 80 bd 64 25 08 bd 02 ec 62 3d
       -0.022310639 -0.062975675 -0.033238783 0.055400856
000200 88 84 2e bc aa c4 c7 3d 04 df 3e be 12 a7 7b 3d
       -0.010651715 0.097543076 -0.18639761 0.061438628
000210 13 9f fb 3c 4f bc f8 3c 80 f5 89 bb 84 b7 12 be
       0.030715501 0.03036323 -0.004210174 -0.14327818
000220 53 da c7 3c f8 16 3a bd 55 55 ad 3d cb dd a3 3e
       0.024396097 -0.04543206 0.084635414 0.32005152
000230 44 93 d7 bd c6 5d ca bc b3 a5 1a bc 80 16 27 3d
       -0.105261356 -0.024702918 -0.00943892 0.040792942
000240 cb 4d 51 bd e9 2f 79 3c 0d 9d c5 3d 05 c5 81 3d
       -0.05109958 0.015209177 0.09649096 0.063364066
000250 b9 12 29 3d da 8e e6 bd d8 3a c8 3c 21 02 93 bc
       0.04127762 -0.112577155 0.024442121 -0.017945351
000260 2e fb 5d bb 16 f8 f9 bd 38 e4 c2 bd 9f e1 1a bd
       -0.0033871639 -0.12205522 -0.095161855 -0.037812825
000270 17 ea 81 bc 87 ea 8a bb 50 f8 83 3a ca de 27 bd
       -0.015858693 -0.0042393836 0.001006851 -0.040983953
000280 00 fa 62 3d e2 d8 92 bd 37 2f 46 3c 36 05 b4 bd
       0.0554142 -0.07170273 0.012096218 -0.087900564
000290 eb 25 c9 3c 33 b1 a1 bd 95 df 3b 3d 81 ea 95 3c
       0.024554214 -0.07895126 0.04586752 0.018300297
0002a0 a7 c8 0a 3e 13 21 19 3e 3d 52 9a 3d f8 bf 84 3d
       0.13553105 0.14954023 0.07535217 0.06481928
0002b0 8f 9b 01 3e 63 dd d5 3d 29 89 ea 3d 51 ea 73 bd
       0.12656997 0.10442617 0.114519425 -0.059549633
0002c0 cb 53 a6 bd f1 4a 00 be a1 a4 7f 3d 63 97 ac bd
       -0.08121451 -0.12528588 0.06241286 -0.08427312
0002d0 97 53 dd bd d3 63 23 3d 06 3b ec 3c 8a 11 24 3e
       -0.10806959 0.03989012 0.028836738 0.16022316
0002e0 f2 ea a4 3d 0e f8 b6 3b 7b a7 2e bb 68 6c 22 bd
       0.08052625 0.0055837696 -0.002665012 -0.039654166
0002f0 e9 18 82 be c7 c7 9d bd 2e a5 86 3d d0 13 ef 3c
       -0.2540963 -0.0770412 0.06574474 0.029184252
000300 ce 34 a0 bc 81 be ec 3c 1d 7f fb bc 6e be c5 3d
       -0.01955643 0.028899433 -0.03070026 0.09655462
000310 dd 2e 48 bd d0 dd a0 3d aa d6 a1 bd 66 70 08 be
       -0.048872817 0.078548074 -0.07902272 -0.13324127
000320 93 f7 19 3d 18 27 d0 bd a0 c8 c1 bd 95 f6 ef bb
       0.03758962 -0.101637065 -0.09462094 -0.007323096
000330 ac 19 a0 bd 99 ad 53 bd d0 fe ca bd 08 fb 0d 3d
       -0.078173965 -0.051679228 -0.09911883 0.03466323
000340 a0 61 33 3d b0 7f 32 3e b5 dd bf 3d 40 01 1d bd
       0.043794274 0.17431521 0.09368459 -0.03833127
000350 7c d2 96 bb 59 c1 b2 bd 67 4f a1 3d c3 c0 17 3e
       -0.0046027284 -0.087282844 0.07876473 0.14819627
000360 56 d5 d3 bd b5 5a 38 bd 6e 8e ee bd df c4 4c 3d
       -0.10343425 -0.04500838 -0.1164826 0.04999244
000370 4d e9 e3 bd 08 00 7c 3d e5 bd 4b bd bb 13 cc bd
       -0.11128483 0.061523467 -0.049741644 -0.09964701
000380 f8 14 75 3d ad 61 89 3d 0f 18 1c be 46 d8 36 bd
       0.05983445 0.06708083 -0.15243553 -0.04463985
000390 d0 0f d7 3d 49 f8 a4 bd f4 2f e9 3d 67 d6 b4 3c
       0.10501063 -0.08055169 0.113860995 0.022074891
0003a0 26 42 cf bd 3c 3b b7 3d 79 59 ba bd 1b 9f 01 3e
       -0.10120039 0.08946845 -0.09099097 0.1265835
0003b0 9c 77 c4 3d 99 71 80 bd 00 08 67 bc c5 0e b2 bd
       0.09593126 -0.06271667 -0.014101028 -0.08694223
0003c0 eb f3 41 bc f0 2c c9 bc 78 4b 89 3c a5 00 7f 3d
       -0.01183794 -0.02455756 0.01675962 0.062256474
0003d0 be 11 c6 bc 74 5f 7f bd 6e bd 85 3d 3b ec bd bd
       -0.024178382 -0.06234689 0.065302715 -0.09273573
0003e0 d7 c3 40 3d 3d 5a 19 bd af 85 b5 3d 7c b8 3a bd
       0.047061767 -0.037439574 0.08863389 -0.045586094
0003f0 5c 30 bc bd 4d eb a1 bd 67 e7 b4 bd 99 99 67 3d
       -0.09188911 -0.07906208 -0.08833199 0.056542967

bias f4 [256]
000000 16 3f 6d bd 7f 73 cb 3d 7a 82 8f 3b ec 52 f7 3c
       -0.05792149 0.099341385 0.0043795677 0.030190907
000010 28 bb cd 3c 70 87 13 bd 50 c4 86 3d f7 01 74 3d
       0.025113657 -0.036017835 0.065804124 0.059572186
000020 be 44 fb bd b5 54 2f bd 6d 6d fd 3c 23 30 d1 bc
       -0.12268971 -0.042805392 0.030935967 -0.025535649
000030 4d 99 b8 bb 0d 42 58 3d 59 e2 b7 bd e4 c1 cb bc
       -0.0056335093 0.052797366 -0.08978719 -0.024872728
000040 f5 0d b1 3b e8 2c 65 3d 24 bd e7 3d 2b 34 cc 3c
       0.005403275 0.05595103 0.113153726 0.02492722
000050 f3 9e 9c bb ad 8b 61 3d 44 f0 06 be ef 80 84 3c
       -0.0047796904 0.055064846 -0.13177592 0.016174762
000060 3c 2e af 3b 33 75 a2 3d 13 f9 1d bd 5a b1 e6 bd
       0.0053460877 0.0793251 -0.038567614 -0.11264296
000070 6a 79 aa 3d 62 7f 38 be 3c 04 c0 bc 28 75 d0 3d
       0.08323939 -0.18017343 -0.02343952 0.10178596
000080 d0 56 7e 3d cb a1 db bc 48 8a db bd bc 0c a4 3c
       0.06209451 -0.026810547 -0.107197344 0.020025603
000090 8c f7 c6 3d 2d e3 91 bd f5 fe b3 bd 8e 69 08 3e
       0.097151846 -0.071234085 -0.087888636 0.13321516
0000a0 ab a2 de bd 6c be 3c 3c 1e bf 27 3d 12 50 f0 bd
       -0.1087087 0.0115200095 0.040953748 -0.11734022
0000b0 07 86 8a 3d f9 79 d5 3d ce ca 2a bd ab aa c2 bd
       0.06763845 0.10423655 -0.041697316 -0.095052086
0000c0 dd 40 41 bd 75 aa 5c 3d fd e8 b0 bd df 7b 1c 3c
       -0.047181 0.053873498 -0.08638189 0.009551018
0000d0 46 25 48 3d b8 39 3d bc f3 ef 77 3d 96 f1 de bd
       0.04886367 -0.011549406 0.060531568 -0.108859226
0000e0 42 2b 00 be 1a 9d ba 3d e0 fe 38 bb e9 81 89 bd
       -0.12516502 0.09111996 -0.002822809 -0.067142315
0000f0 26 16 a9 bd dd 5a b3 bd d3 7a 1a bd f1 5b a4 bd
       -0.082561776 -0.08757565 -0.03771479 -0.08025349
000100 c7 64 0a be 27 bd 8a bd a9 83 0a 3e df e1 b5 bd
       -0.13515006 -0.06774359 0.13526787 -0.08880972
000110 d6 b6 d8 bd 17 6c f6 bd 0b 39 e2 bd 2e e9 6a 3c
       -0.10581748 -0.12032335 -0.11046036 0.014337821
000120 51 36 41 bd 22 97 ca bd 93 ec a6 3d 1c c0 f5 bc
       -0.04717094 -0.098921075 0.08150592 -0.029998831
000130 22 4e 18 3e f4 f8 c5 bd 99 17 f4 bd 3f ca 99 3b
       0.14873555 -0.09666625 -0.119185634 0.004693299
000140 db 67 5f 3d 07 ac 6a bd 54 16 ed bd b8 a2 a9 3d
       0.054542404 -0.057292964 -0.115765244 0.08282989
000150 4d 0a 26 bc 16 00 a1 bc d4 e1 84 bc 97 43 72 bd
       -0.010134292 -0.019653361 -0.016220964 -0.05914649
000160 7f 32 6d 3d 0c 1b 2f 3d 00 b9 3b be c7 62 be bd
       0.057909485 0.042750403 -0.1833229 -0.09296184
000170 08 ba 04 be db c4 3d bc c0 99 87 bd 8a 02 16 bd
       -0.1296159 -0.0115825785 -0.06621122 -0.036623515
000180 20 c2 24 be 9c 3b 80 bc b1 df b6 bd cb 59 e2 3d
       -0.16089678 -0.015653424 -0.089293845 0.11052283
000190 05 d6 e7 bc 88 fc e1 3c 61 df a7 3c 79 4d 50 bc
       -0.028300295 0.027586237 0.020492258 -0.012713783
0001a0 a3 23 1c bd db 71 a6 bd 58 f8 a7 bd 7d 0c e6 bd
       -0.038119923 -0.08127185 -0.08201665 -0.11232851
0001b0 d2 b8 5e 3d 2c 5d 98 3c 77 6e 86 bd 21 14 67 3d
       0.054375477 0.018599115 -0.06564038 0.05641568
0001c0 49 f2 cb 3d 54 40 06 3d f1 7f af 3d c3 19 2c be
       0.099583216 0.03277619 0.08569325 -0.16806702
0001d0 34 0f e6 3c d8 e9 fd bb b5 db 8c 3d eb d4 d5 3d
       0.028083421 -0.0077488236 0.06877843 0.104410015
0001e0 6d ed 85 3d dd 91 1a 3d a4 b8 b6 bd 95 0d 2f 3b
       0.06539426 0.037736762 -0.08921936 0.0026710976
0001f0 47 bb 31 bd ca 58 ff bd d6 e6 1f be 68 7c d4 bd
       -0.043391492 -0.12468107 -0.156154 -0.10375291
000200 41 d4 a0 3c ab bb b0 3c 4e 08 0e be 2b 99 61 3c
       0.01963246 0.021573862 -0.13870355 0.013769428
000210 17 2f 3a bd 26 b9 00 bd 21 07 a7 bd e4 b6 28 bd
       -0.045455065 -0.03142657 -0.081556566 -0.041190043
000220 d5 68 c2 bd 0b ab d6 bd 42 b7 80 3d 2f 7f b1 3d
       -0.094926514 -0.104818426 0.06284954 0.086668365
000230 4e 23 4e bd 8a 80 28 3e ca 5a e6 bb 9e da 50 bd
       -0.050326638 0.16455284 -0.007029866 -0.05098974
000240 9c 95 d7 bd f9 fb 08 be 58 96 92 bc ce cb cb bc
       -0.105265826 -0.1337737 -0.017893955 -0.024877455
000250 28 1c 04 3e a0 89 0e be a3 7a 90 bd 8d 7f 04 be
       0.12901366 -0.13919687 -0.07054641 -0.12939282
000260 a7 06 43 3d ff ab b9 3c 33 69 6f bc 01 ce ef bc
       0.047613766 0.022665022 -0.014612484 -0.029273035
000270 79 73 0e be 2a 13 aa 3b 40 a4 95 bd 85 96 e6 bb
       -0.13911237 0.005190273 -0.07306719 -0.0070369863
000280 83 db be 3d b4 17 13 be 10 cf 2a 3c e2 53 68 bd
       0.09319212 -0.14364511 0.010425344 -0.056720622
000290 02 ed d8 3d 1e d1 2a bd 96 52 55 3d 40 6a 4a 3d
       0.10592081 -0.041703336 0.052080713 0.049417734
0002a0 6e f3 88 bd 41 0a bc bd d9 64 78 3d f5 22 10 bd
       -0.066870555 -0.09181643 0.06064305 -0.035189588
0002b0 e6 30 77 bc af 86 a5 bc ce ef e1 bd 61 60 94 bc
       -0.015087342 -0.020205824 -0.11032067 -0.018112363
0002c0 93 08 54 3d c9 03 f6 3d 7a dd 77 bc ca f7 e8 bd
       0.05176599 0.12012441 -0.015128488 -0.11375387
0002d0 fb e9 06 3d 58 1f 10 3d a1 1d d4 bd d4 d6 b4 bd
       0.032937985 0.03518614 -0.10357214 -0.08830038
0002e0 65 2d 6a 3d 00 68 b8 bd c6 06 08 be 38 cf 36 bd
       0.057172198 -0.090042114 -0.13283834 -0.044631213
0002f0 e2 0c 2e 3d f7 ad 2c 3b f7 87 d6 bd 3b b0 ec bd
       0.042492755 0.0026348808 -0.10475152 -0.11557051
000300 d4 28 00 3e 27 53 ae 3d 82 7d 49 bc 2c a1 14 3d
       0.12515575 0.08511954 -0.01229799 0.036286518
000310 76 c6 68 bd 73 15 9b bb c6 d7 93 3d 96 c5 1f be
       -0.056829892 -0.0047327816 0.0721889 -0.15602717
000320 f9 ea 87 3d 7a de 0c be fc 6b e4 3d e9 fa 04 be
       0.06636614 -0.13756743 0.11153409 -0.1298634
000330 47 8a a0 3d 31 bd fc 3c bd 59 e8 bd 8a 7e ac bd
       0.07838874 0.030851932 -0.11345241 -0.08422573
000340 41 58 b2 bd c4 4c 85 3c 28 c9 c7 bb a4 1f e3 bc
       -0.08708239 0.016271956 -0.0060969777 -0.027725048
000350 27 11 92 bd 6a e5 50 3d 9c 09 f4 bd 19 4a 6d 3d
       -0.07132178 0.051000036 -0.11915895 0.057931993
000360 1d 3f 59 bd c1 ea 53 3d 70 fe 1f 3d 51 df f3 bd
       -0.053038705 0.05173755 0.03906101 -0.119078286
000370 ad de 0e 3d 4d aa 09 be f6 2c a8 3d b5 8c 11 bd
       0.03488033 -0.13443871 0.082117006 -0.03553458
000380 26 48 0e be e9 6b bb 3c d4 5d c2 3d de ec ca bd
       -0.1389471 0.022878604 0.094905525 -0.0990846
000390 b3 5b fd 3c 9e f2 03 3e 68 26 ee bd 32 6c e6 3c
       0.030927515 0.1288552 -0.11628419 0.028127763
0003a0 27 95 97 3c 9e 76 07 3d 73 02 46 bd 9c 1f 9e 3d
       0.018503739 0.033072107 -0.04834218 0.07720873
0003b0 ec 60 02 3d 68 04 ac 3d 84 28 90 bd e6 ae 1a 3e
       0.031830713 0.08399278 -0.07038978 0.15105781
0003c0 f1 3b c2 3c fc 09 d3 3d 02 99 53 3c 88 54 14 be
       0.023710223 0.10304639 0.012914898 -0.14485371
0003d0 86 fe b5 bb 70 de cd bd 5b d3 14 3d 76 e4 2c bd
       -0.005554023 -0.10052192 0.036334377 -0.042210065
0003e0 d9 f4 01 3d 72 d4 56 bc 67 e2 af 3d dc 49 d3 b9
       0.031727646 -0.013112174 0.08588105 -0.00040300086
0003f0 9f 9f d7 bd 06 d8 6d bd cd 3c 6e 3d 47 ae 5b bd
       -0.10528492 -0.058067344 0.058163453 -0.053633

weight f4 [128, 256]
000000 38 6c 22 ba e3 d0 7b 3c 99 c9 3b 3d 1c 9c 06 bd
       -0.00061959354 0.015369627 0.045846555 -0.03286372
000010 da 6b b3 3b d9 2d 79 bd b1 ce 95 3c ce 16 5c 3d
       0.0054755034 -0.06083474 0.018287035 0.053732686
000020 c1 62 eb bc fe 31 80 bc 6e e2 52 3d 3e 5c bc 3c
       -0.028733613 -0.015648838 0.05148547 0.022993203
000030 92 99 37 bd 60 3c 03 bc 10 e7 1b bd b1 56 28 3d
       -0.04482419 -0.00801 -0.038062155 0.0410983
000040 36 83 7c bd e9 70 5b bc b7 31 0c bd e7 a6 d2 3c
       -0.06164857 -0.013393619 -0.0342271 0.02571435
000050 f9 60 9c 3c 87 0f 3f bd fe af d5 bc 4c ec f9 3c
       0.019089209 -0.046645667 -0.026084896 0.030508183
000060 4a a0 67 3d f5 65 55 3d e0 21 4f bd 2a 25 d0 3c
       0.056549348 0.052099187 -0.050569415 0.025408346
000070 fa 0a 93 bc 0f 82 38 bd 5f 1c a0 bc c6 55 a4 bc
       -0.01794957 -0.04504591 -0.019544778 -0.020060431
000080 bd cd d2 3c 15 7d 1e 3d 5d 18 71 3d 93 dc 24 bc
       0.02573287 0.038693506 0.058861125 -0.010062355
000090 ca 4e 4d 3d e7 f0 c1 3c 67 8e 73 bd 48 b0 4c bd
       0.050123967 0.023674442 -0.059461977 -0.049972802
0000a0 ce af 9f bc 45 bb 76 bd ae 88 74 3d 76 bb 38 3d
       -0.01949301 -0.060237188 0.05970066 0.04510065
0000b0 e1 e7 36 3c b7 99 f3 3c 3b 04 42 bd a5 d3 6c bd
       0.011163683 0.029736383 -0.047367316 -0.057819027
0000c0 44 02 58 bd 20 a6 e3 bc 44 9c 1c bd 78 58 3e 3d
       -0.052736536 -0.027789176 -0.038234964 0.04647109
0000d0 bf bb 45 3d 02 71 a3 3c 89 f0 52 3d 72 f0 53 bd
       0.04827475 0.019951347 0.051498923 -0.05174298
0000e0 51 ab f8 3c 8c a0 bb ba 0d 2d 5a bd 3a f0 57 3d
       0.030355128 -0.0014314814 -0.05326562 0.052719332
0000f0 5b 5c f2 3c 02 8c bc bc 47 6d 92 3c 89 e5 78 bd
       0.029585054 -0.02301598 0.017874373 -0.060765777
000100 6a 9e 38 bb ff 91 cc bb ac 98 f4 bc a9 ed 9b bc
       -0.0028170594 -0.00624299 -0.029857956 -0.019034224
000110 57 95 14 3d 1e 92 fc bc 34 bd a6 bc 52 63 3e 3d
       0.036275234 -0.030831393 -0.020353891 0.046481438
000120 a7 0d 57 ba e9 33 b7 3b a9 23 22 bd 31 01 a0 3c
       -0.00082036335 0.005590905 -0.03958479 0.019531818
000130 03 00 be bc e0 f6 40 bd d5 d3 03 bd e1 cf 0f bd
       -0.023193365 -0.04711044 -0.03218444 -0.03511036
000140 08 0f 63 3d 7d 44 5d bd a7 68 63 bb 95 77 c0 3c
       0.055434257 -0.054020394 -0.0034699829 0.023494521
000150 5b 7d 4c 3d 17 b8 54 bc 8a f4 a0 bb 4a 1f 82 bd
       0.049924236 -0.012983344 -0.004911964 -0.06353624
000160 67 95 6f 3d 92 84 4c bd d4 a9 22 3d db 54 68 bd
       0.05849209 -0.049931116 0.039712742 -0.05672155
000170 ac 5e 9a bc 7d b8 9f bc 17 81 ce 3c a0 1d cc 3c
       -0.018843971 -0.01949715 0.02520804 0.02491647
000180 e6 6a 29 bd dc a6 3e bd 03 56 e9 3c f1 b3 33 bd
       -0.041361712 -0.04654585 0.028483396 -0.043872777
000190 4d 5a bf 3b 73 6d b9 bc 94 ee 2e 3c 86 47 20 bc
       0.005839622 -0.022635197 0.010676999 -0.0097826775
0001a0 be 2e 51 bd f2 ab 98 3c b8 88 07 3d 8f 2a a9 bb
       -0.051069967 0.018636677 0.03308937 -0.005162544
0001b0 47 07 35 bd 77 3e 44 3d 3f 84 ef 3c aa 6a 4e ba
       -0.044196393 0.047911134 0.029237865 -0.00078741706
0001c0 f8 ad 5f bd 44 55 7a bd c5 ca 63 3d 25 75 24 bd
       -0.05460927 -0.061116472 0.055613298 -0.04015078
0001d0 9c 21 62 bd 1e 42 02 bd 0d 36 1b bd c8 52 5e bc
       -0.055207834 -0.031801336 -0.037893344 -0.013569541
0001e0 f9 57 03 3c 30 6b 2d bd a3 51 b5 bc 8d 10 92 bc
       0.00801658 -0.04233855 -0.022133654 -0.017830158
0001f0 5d 67 48 3d 08 0e 23 bd e2 a5 97 3c db e7 ab bc
       0.0489267 -0.039808303 0.018511716 -0.02098458
000200 46 7f 14 3d 54 8c e5 3b 68 09 37 3c 49 50 3a bd
       0.03625419 0.007005254 0.011171676 -0.045486722
000210 bd 8c 04 3c 81 fc 17 3d 83 2c 47 bd ef ee 11 bd
       0.008090195 0.03710604 -0.048626434 -0.035628255
000220 ec d1 f6 bb 5c 33 44 3c 65 1d 58 3d 63 2f 60 bd
       -0.007532349 0.011975136 0.052762408 -0.05473269
000230 bb d6 b1 3b e8 9f 6c 3d 38 56 54 3d a3 c3 c8 3b
       0.005427209 0.057769686 0.051840037 0.0061268373
000240 a8 08 21 bc 94 e8 1a bd 9b ce 57 3d fb 90 13 bd
       -0.009828724 -0.03781946 0.05268727 -0.036026936
000250 b4 5c 11 3c 03 51 4a 3d 13 59 43 3d 73 5f 56 3d
       0.0088722 0.049393665 0.04769237 0.05233712
000260 fc 0e a2 bc b8 fd 9b ba a3 63 9e 3c 5f 2b 83 bb
       -0.019782536 -0.0011901176 0.01933462 -0.004002973
000270 3b a7 ef 3b fa 2c 9f 3c 7b 0f 34 3d fd 59 12 3d
       0.0073136366 0.019430626 0.043960076 0.03573035
000280 b5 3a ee bc a5 b9 37 bd 5a 27 92 3c b4 4d 17 3d
       -0.029080728 -0.04485478 0.01784103 0.036939338
000290 cf fc 12 3d 46 9a 59 3c 35 b6 4a 3d cf 34 1e 3d
       0.03588563 0.013281411 0.049490172 0.03862458
0002a0 97 2f ad 3c b7 88 b1 bc 06 46 d1 bc 8a b8 1e bd
       0.021140857 -0.021671636 -0.025546085 -0.03875021
0002b0 b9 e1 3c bc 4e ad be bc 3a da 7f bd 96 69 36 3c
       -0.011528426 -0.023275997 -0.062463976 0.011133572
0002c0 b8 99 3d 3d d7 b6 0a bd ee d2 d5 3c 04 9a 5b bc
       0.046289176 -0.033865776 0.026101556 -0.013403419
0002d0 ae a9 9f 3c e7 60 ec 3c d4 f4 6e bd 2e 00 03 3c
       0.01949009 0.0288548 -0.058338955 0.007995648
0002e0 81 86 38 3d 05 3c de 3c 90 6d 02 3c 80 61 37 bd
       0.045050148 0.027128229 0.007960692 -0.044770718
0002f0 e9 d7 72 3b cf e7 a9 ba e2 7f 44 3d f8 27 62 bd
       0.0037054962 -0.0012962761 0.04797352 -0.0552139
000300 f5 23 f5 bc 34 61 03 3d 34 62 6f 3d 53 1d 36 bd
       -0.029924372 0.032075122 0.058443263 -0.04446156
000310 32 b8 a9 bc 2e 03 44 3a 93 d5 08 bd 76 5c 45 bb
       -0.020717714 0.00074772805 -0.033406805 -0.0030114925
000320 83 0d c4 bc e7 99 cf bc 41 20 e1 3c 00 1a 76 3d
       -0.023932224 -0.025341941 0.0274812 0.06008339
000330 54 4f 5e bd 87 9b 30 bd 2c 31 3f 3c 3b 38 20 3d
       -0.054274872 -0.043117072 0.011669438 0.039116126
000340 a2 37 7a bd 45 17 89 3c f1 b7 d6 3b 01 95 77 3c
       -0.06108821 0.016734729 0.0065526892 0.015111209
000350 91 de b9 bc b2 f3 5b 3b 0b 02 b6 3b 9d a9 fc 3c
       -0.022689136 0.0033562002 0.0055544428 0.030842597
000360 33 fb 32 3d 23 a8 5c bd 38 91 46 bd 0f 03 52 3d
       0.043696593 -0.053871285 -0.048478335 0.05127245
000370 87 57 a4 bc ae 39 37 3d af 96 1b bd 70 b4 7c bd
       -0.020061268 0.044732742 -0.0379855 -0.061695516
000380 fa 3b c0 bc 48 ba 99 3b 89 95 71 3b 86 23 61 3d
       -0.023466099 0.004691396 0.0036862812 0.05496552
000390 0e 2b 08 bb 13 7c 1b bd 78 29 0a bd 91 d6 ee ba
       -0.0020777616 -0.037960123 -0.033730954 -0.0018221905
0003a0 04 cc 5a bd 92 ae 34 bc 42 c5 74 3d 3a 64 e6 3c
       -0.05341722 -0.011027949 0.059758432 0.028123964
0003b0 33 73 34 3d 47 eb 60 3d 28 64 7a 3d f1 40 0f 3d
       0.044055175 0.054911878 0.061130673 0.034974042
0003c0 77 1d 8c 3c d8 16 dc 3c d4 bd 5c bd d2 fc 31 bd
       0.017103894 0.026866361 -0.05389197 -0.043454
0003d0 02 1b 54 3d a1 98 7b bd 7e d2 36 3d 2a 32 76 bd
       0.05178357 -0.061424855 0.044634335 -0.060106434
0003e0 db 07 12 3c 67 9e 4e bd 20 7b 0d bd 99 7b 43 3d
       0.008913006 -0.050444033 -0.03454125 0.047725294
0003f0 ae d0 fc bc 7e d4 ee 3c de b5 ca 3c 38 c9 41 bd
       -0.030861225 0.029154059 0.024744924 -0.047311038

bias f4 [128]
000000 a6 b3 dc bc dd be 15 3c 57 8e 83 3d 72 72 73 3d
       -0.026941132 0.009139744 0.064236335 0.059435315
000010 78 e2 b5 3d 8a 30 78 3d 82 e0 3a 3c 51 ae 57 bc
       0.08881086 0.060593165 0.011406066 -0.013164119
000020 ba fa 3e bd cf e4 0c bd b8 46 0c bd b4 84 96 bc
       -0.04662583 -0.034397896 -0.03424713 -0.018373825
000030 0c fa 1a bd 18 04 56 bd 06 04 ff 3a d0 e3 56 3c
       -0.03783612 -0.052249998 0.0019456155 0.013115838
000040 8d 56 09 3c 0a ed 56 3d 6a a5 21 bd db 87 f1 3c
       0.008382452 0.05247215 -0.03946439 0.029483726
000050 33 0e 15 3d 4c 64 a4 3d 7c d4 c1 bb 5d 47 44 3d
       0.036390495 0.080269426 -0.0059152227 0.04791962
000060 82 57 ce bb c0 5a ec 3c 76 eb 1b bb a2 4c 1d bd
       -0.006297053 0.028851867 -0.0023791469 -0.03840316
000070 5b b6 0c bc 18 80 25 3e 1b 14 5a 3c 7a d7 38 3d
       -0.008588399 0.16162145 0.013310458 0.04512737
000080 1a 62 8f 3d b6 23 22 3c d4 f6 05 bd cd db 15 bd
       0.07001133 0.009896209 -0.032706097 -0.03658657
000090 7c c8 f3 ba 0c a6 7a bd 06 70 b2 3c f9 16 09 bd
       -0.0018599178 -0.06119351 0.021781933 -0.033469174
0000a0 7b 64 70 bd d1 fa 13 3d 4b 6f 52 3d b6 f6 8c bc
       -0.058689576 0.03612787 0.05137567 -0.017207485
0000b0 e5 82 58 bd c5 00 64 bd 63 19 77 bc 1c ce 11 bd
       -0.052859206 -0.055664796 -0.015081736 -0.03559695
0000c0 2f 9a af 3c 17 08 1a bb 1c b9 49 bc 95 e5 33 3b
       0.021435825 -0.0023503357 -0.0123122 0.0027450074
0000d0 75 90 7a 3d 9d 06 0c bd 34 de 00 3d 51 5e 66 3d
       0.06117292 -0.034185994 0.03146191 0.05624229
0000e0 67 31 6a bb ef f1 49 3d 37 2c 86 3d 46 74 c5 3c
       -0.0035735012 0.04930299 0.06551402 0.024103295
0000f0 69 c9 33 3c aa 7a 16 bd 96 00 c1 bc 58 c7 f3 3c
       0.010973313 -0.036738075 -0.02355985 0.02975814
000100 52 5b 5d bb 13 4f 37 bd 13 40 87 3d 9d 0e 0a bd
       -0.0033776355 -0.044753145 0.06604018 -0.033705343
000110 77 79 10 bd ed 33 48 3c bd 85 73 bc 72 6f 09 3c
       -0.035272088 0.012219411 -0.014863429 0.008388387
000120 b9 06 3b bc 5f 95 c2 3c ce 60 b0 3c 1f 86 c2 3d
       -0.011415177 0.023752866 0.021530535 0.09498238
000130 b4 8a 4d bc a7 65 3d 3c 40 42 a4 ba 70 5b b1 3d
       -0.012545276 0.01155988 -0.0012531951 0.086600184
000140 cb 86 03 bd 10 46 54 bd 93 d4 d2 3b b8 95 20 3d
       -0.03211097 -0.05182463 0.006434032 0.039205283
000150 4f 04 fa bc 66 f7 37 bd 37 e4 4d 3d 91 e9 c1 bc
       -0.030519633 -0.044913672 0.05026647 -0.023670943
000160 f5 36 75 bd 2d 0b c9 bc 08 6c 71 3c 55 71 0c 3d
       -0.059866864 -0.024541462 0.014735229 0.03428777
000170 2a bb 88 3c 63 03 53 bd c3 af a4 3d f1 2e 1a bd
       0.01669081 -0.0515169 0.080413364 -0.037642423
000180 72 8c 11 bb 2f 09 81 bc 03 39 f3 3b 4b 87 a2 3c
       -0.0022208956 -0.01575145 0.007422568 0.019839903
000190 f9 41 0e 3a e3 09 b8 bc 37 4e 57 bc 6d c7 3d 3d
       0.0005426701 -0.022465652 -0.0131412065 0.046332765
0001a0 30 b5 a1 3d 06 6d 0f bc 63 c0 84 3d 82 81 87 bc
       0.07895887 -0.008754021 0.06482007 -0.016541246
0001b0 c6 4f e5 bc 15 ca 65 3c a7 02 95 3c 14 d2 fe 3a
       -0.02799214 0.014025231 0.018189741 0.001944127
0001c0 2b d1 46 bd 13 f9 12 bc c8 54 8d 3d 07 7d 49 bc
       -0.048539322 -0.008970517 0.06900936 -0.012297875
0001d0 a4 a7 2a 3c 21 1a af 3d 1e bf f8 bc 00 5e 3a bc
       0.010415945 0.085499056 -0.03036457 -0.01137495
0001e0 13 ee 02 bd bb f3 16 bd 87 90 4c bc eb 5e 34 3d
       -0.031965327 -0.036853533 -0.01248563 0.044035833
0001f0 eb 2d 6f bd e7 af 6c bd c1 48 23 bc 60 4e eb bc
       -0.0583934 -0.05778494 -0.009966076 -0.028723896

weight f4 [64, 128]
000000 2a 1f cc 3c 51 8d c9 3d 2f 78 82 bc e4 5c 66 3d
       0.024917204 0.09841407 -0.015926449 0.05624093
000010 58 c3 31 bd 20 1b af bd 70 63 30 3d 67 a7 9e 3d
       -0.043399185 -0.085500956 0.04306358 0.07746773
000020 99 9c 15 3d 6e a1 1a bd 4d 9a 5a 3d 00 85 c7 3d
       0.036526296 -0.037751608 0.05336981 0.097421646
000030 45 be 2b 3d 10 4a b2 bc c4 02 99 3d 0e 17 39 bd
       0.041929502 -0.021763831 0.074712306 -0.045188002
000040 f4 5a 15 3d db 02 c5 bc 67 df 63 bd 56 d7 08 bc
       0.036463693 -0.024049213 -0.055632975 -0.008352121
000050 e3 d3 7c bd d6 cb 9a 3c aa 49 ab bd 84 7d 25 bd
       -0.06172551 0.018896025 -0.0836366 -0.040402904
000060 f4 eb 44 bb af a6 f7 bc 1d 54 96 bd cd e1 b8 bc
       -0.0030047866 -0.030230848 -0.07340262 -0.022568608
000070 1f 74 57 bd ce d8 0d 3d 03 ae b6 3d 43 bb cf 3c
       -0.052600976 0.03463059 0.08919909 0.025357848
000080 a1 55 68 bd 5f 37 2f bd d5 42 0f 3d 99 9e 15 bd
       -0.056722287 -0.042777415 0.034975845 -0.036528204
000090 11 32 9d 3d 3e 46 83 3c 8c 90 af 3c 19 fc 63 3d
       0.07675565 0.016024705 0.02143123 0.05566034
0000a0 ee 1c 96 bd 41 75 71 3d ab a4 49 bd 86 a4 87 3c
       -0.07329737 0.058949713 -0.049229305 0.016557943
0000b0 55 c2 dc bc c6 b8 46 bd 5f aa 87 bc 35 b3 96 3c
       -0.026948133 -0.048516057 -0.016560731 0.018396
0000c0 8e 86 d2 bc 54 9d d7 bb 18 2a 8e bd ca 23 9e 3d
       -0.025698926 -0.0065800343 -0.069416225 0.0772167
0000d0 22 82 b6 bd 50 a8 26 3c d8 69 85 bd cd 24 ba 3d
       -0.089115396 0.010171965 -0.06514329 0.090890504
0000e0 bc 44 2c bd f5 c6 17 bd 5b 62 90 3d de 27 06 3d
       -0.042057738 -0.037054975 0.0705001 0.032752864
0000f0 f9 44 3a 3d 7e 64 c6 3c 43 91 1c 3d 74 5b 95 3d
       0.045475934 0.02421784 0.03822447 0.07292834
000100 71 6e 50 bd d1 d8 3d 3b 80 be 7b 3d d3 02 ac 3d
       -0.050886575 0.0028968344 0.06146097 0.08398976
000110 f2 40 f1 bc 22 4f 94 bc 22 59 88 bd c4 d0 ac bb
       -0.029449914 -0.01810414 -0.06657626 -0.0052739102
000120 99 e2 a0 3d 29 1b 66 3d 05 25 a6 3d c2 7d 12 bd
       0.0785572 0.056178246 0.0811253 -0.035764463
000130 0d 99 36 3d 8a 15 78 3c 07 0c af 3c 9e 7c 2a 3d
       0.044579554 0.015141854 0.02136804 0.04162275
000140 cd bd f6 3c 7e 9d 35 bc 75 c1 48 bd 26 0d 43 3d
       0.030119801 -0.011084912 -0.04901262 0.04761996
000150 02 33 89 bd ef b1 5e 3c a2 dd cd ba b1 2a 51 bc
       -0.06699182 0.013592227 -0.001570631 -0.012766526
000160 db e9 62 3c 21 b8 66 3d 98 02 01 bd b5 4b 72 3c
       0.013849701 0.056327943 -0.031496614 0.014788558
000170 72 f8 a7 3d 12 32 4d bd 96 10 72 bd bd 43 29 bd
       0.08201684 -0.05009658 -0.05909785 -0.041324366
000180 c7 5a d0 3d d8 d6 aa 3d c7 14 98 3d 1f 1a 0d 3d
       0.101735644 0.083417594 0.07425838 0.03444874
000190 8a 15 12 39 ce df 43 3d 93 a9 d8 3b a0 ba ff bc
       0.00013931669 0.04782086 0.0066120117 -0.03121692
0001a0 00 a7 a5 bd 9e bf 4a ba 59 d9 0c ba b6 07 4d 3d
       -0.08088493 -0.00077342417 -0.00053729635 0.05005618
0001b0 72 6a 28 3d 11 4f 93 3b 87 54 7a bd 1c 6f e0 3a
       0.04111714 0.0044955094 -0.061115768 0.0017122957
0001c0 b0 5e 20 3d d3 be 30 3d d8 7e 4e 3d 8b 08 83 3d
       0.0391528 0.043150734 0.050413936 0.06398114
0001d0 31 4f 84 bd 3f ba 53 3d 20 38 2f bd a0 af da bc
       -0.06460417 0.05169129 -0.042778134 -0.026695073
0001e0 cb 8f 94 3d bf 43 15 3d b1 6c fa 3d 4b 93 eb 3c
       0.07253989 0.03644156 0.122277625 0.028756758
0001f0 cc 41 94 3d 21 05 62 3c 7f 0b 80 bd 41 68 d1 3d
       0.07239112 0.013795168 -0.06252193 0.10224963
000200 78 cd b0 3d 39 38 b2 3d 9d c4 99 3c 42 bd c8 3c
       0.0863294 0.0870213 0.01877051 0.024504308
000210 16 51 2d bd 25 82 1b bd 85 df 50 3d 72 39 7b bd
       -0.042313658 -0.037965912 0.050994415 -0.06133408
000220 55 d5 8e bd 99 af 64 bd d1 24 a8 ba 69 91 48 bd
       -0.069742836 -0.055831525 -0.0012828355 -0.0489668
000230 ee f5 41 bd aa f8 ad 3d 28 d7 a2 3d 23 4e ab 3d
       -0.047353677 0.084946945 0.07951194 0.08364513
000240 de d4 40 bd a3 bb a7 bd 21 b6 9b 3d 7a 7c 8a 3d
       -0.047078006 -0.08190086 0.07603098 0.06762023
000250 43 14 85 3d 89 4f 83 3d aa 30 0a bd 7a 80 b5 3d
       0.06498005 0.064116545 -0.033737816 0.088623956
000260 cd cc 72 3d e0 35 60 3d 9e 6e 17 bd dc 07 99 3d
       0.059277344 0.05473888 -0.036970727 0.07472202
000270 18 10 5d bd 8a dd 83 3d fa bf a5 3d 58 51 06 3a
       -0.053970426 0.064387396 0.08093257 0.00051238155
000280 46 3f 08 bc 29 68 4d bd 89 95 5f ba 16 ce 6e bd
       -0.008315867 -0.050148163 -0.00085290574 -0.058302008
000290 6f f8 99 3c 1d ac bb bc 5f a3 cf 3c db 25 9a bd
       0.01879522 -0.022909218 0.025346456 -0.075267516
0002a0 c9 05 35 bd 36 ab c2 3c 91 5b db bc 16 75 a9 3d
       -0.04419497 0.02376328 -0.02677706 0.082742855
0002b0 ed 57 d3 3c 78 ac b8 bc 41 79 c6 bb 2c 7a 80 3c
       0.025798762 -0.022543177 -0.006056935 0.015683256
0002c0 a4 42 84 3d 28 ac 46 3d cc c5 54 bd f4 62 84 3d
       0.06458023 0.048504025 -0.051946446 0.06464186
0002d0 5e c4 74 bc 8c a3 a6 bc 0b 06 a0 3c 59 2f 49 bd
       -0.014939396 -0.020341657 0.019534132 -0.04911742
0002e0 ec 6f 79 3c 26 0e ad bc 16 32 fa 3c 1c 22 40 3c
       0.015224438 -0.02112491 0.030541461 0.011726882
0002f0 f9 aa 81 3c b7 86 52 bd fa e7 76 bd b6 47 0e bc
       0.015828596 -0.051398005 -0.060279824 -0.008684089
000300 95 e0 20 3d 5f 94 85 bd 7c 38 47 bb bb 2b 0d 3d
       0.039276678 -0.0652244 -0.0030398658 0.034465533
000310 bd 8c 75 bc 0b 9d b4 bd f9 d1 85 3d cd 0f 86 bd
       -0.014987168 -0.08819016 0.0653419 -0.065459825
000320 12 da 4c bb a5 8f 86 bd 6a 71 a4 3d 04 32 e1 3c
       -0.003125791 -0.06570367 0.080294445 0.02748967
000330 b0 7a f6 bc e4 80 97 3c 38 f5 98 bd cd 0a 8a bc
       -0.030087799 0.018494077 -0.07468647 -0.016850853
000340 ff f7 49 bd 62 87 04 3d e1 62 02 3c 58 52 9b bd
       -0.049308773 0.032355674 0.007958145 -0.07584065
000350 68 ac ea 3c fa 20 c9 3c 67 a1 86 bc 78 b9 af 3d
       0.028646663 0.024551857 -0.016434385 0.08580297
000360 73 a6 4d bd 3f e6 56 bc 38 85 83 bd ca ac 9a bc
       -0.050207566 -0.013116418 -0.06421894 -0.01888122
000370 8e 8b bc 3c 5e d7 b3 3d 61 76 47 bd 8a 53 66 3d
       0.023015764 0.087813124 -0.04869688 0.056232013
000380 e5 a4 a0 3b ab cc 91 bd e3 c3 f6 bb ec c3 90 bc
       0.0049024695 -0.071191154 -0.0075306757 -0.017671548
000390 8d d9 fe 3a 69 38 a4 bd b6 3a 82 3d 5f 87 86 bd
       0.0019443497 -0.08018572 0.063588545 -0.06568789
0003a0 38 4f 93 bb 51 04 47 3d a1 c1 65 3d fc 56 2e 3d
       -0.0044955276 0.0485881 0.056092862 0.042563424
0003b0 49 11 68 bd e1 bc 83 3d 5c 96 3d bd 73 32 8d 3d
       -0.05665711 0.0643251 -0.046285972 0.06894388
0003c0 f1 bf 83 3d aa e7 84 3d f3 a4 4f 3c 1f 5d 88 bd
       0.06433094 0.06489499 0.012673604 -0.066583864
0003d0 40 ef 82 bd 28 09 a5 bd d3 8b 3f 3d 40 42 de bc
       -0.063932896 -0.08058387 0.046764206 -0.0271312
0003e0 8e 2d 0a bd 92 fb 8f bd 84 28 ac 3c e7 7c 19 3d
       -0.03373485 -0.07030405 0.021015413 0.03747263
0003f0 e9 39 20 3d e0 34 0b bd b0 46 6e bc ba 01 aa 3d
       0.039117727 -0.033985972 -0.01454322 0.083011106

bias f4 [64]
000000 1c 5d 34 3d 1a 41 f6 bc f0 1b 88 3d 06 28 21 bd
       0.04403411 -0.03006034 0.06645954 -0.03934481
000010 cb 66 2b 3d 81 95 a8 3d 3a a1 09 bd 26 88 d2 bc
       0.041846078 0.082316406 -0.033601023 -0.025699686
000020 2e 75 d6 3c 9a e0 9e bd 91 a4 34 3e d3 74 a6 bc
       0.026178923 -0.07757683 0.17640902 -0.020319378
000030 aa c9 8f 3c d2 12 02 3d c3 7a 71 3e cb 09 72 3e
       0.017552216 0.03175623 0.23581986 0.23636548
000040 be 1d 3a 3b 18 d6 90 3d ce 51 9e bd 2c ca 25 bd
       0.0028399075 0.07072085 -0.07730447 -0.04047601
000050 f4 c1 0f 3e 18 ac f5 bc b3 38 c8 3a 77 35 0f 3c
       0.14038831 -0.029989287 0.0015275687 0.008740774
000060 40 20 0c 3d fd 8d 9a 3e 2c cf 88 3c 3a 30 87 bc
       0.034210443 0.30186453 0.01670035 -0.016502488
000070 39 e9 f1 3d aa b4 4c 3d ab e5 ea 3d e2 21 98 bc
       0.11812062 0.049976982 0.11469587 -0.018570844
000080 49 9f 77 bd d9 87 8a 3d dc f0 c9 3c ac 25 d5 3d
       -0.06045464 0.06764192 0.024650984 0.10407576
000090 cc 4e a3 bd a2 6d e7 3d c9 0f 38 3d 5b 4c 83 3e
       -0.07974014 0.11300208 0.04493693 0.25644192
0000a0 33 d7 c6 3d d1 86 1f 3c 42 b0 b7 3d bc 65 71 3e
       0.09709015 0.009736733 0.089691654 0.23573965
0000b0 21 6e 11 3e 36 fb 88 3c 16 75 84 bd ee 55 8c bd
       0.14202167 0.01672135 -0.06467645 -0.06852327
0000c0 91 19 65 3e 75 ce 34 bd 43 7e 64 3d 7c 5d 24 bd
       0.22373034 -0.044142205 0.055784475 -0.040128216
0000d0 b5 77 23 3e 3c 84 36 3e 4f 4c 5a bd f7 ac 14 3d
       0.15963633 0.17823881 -0.05329543 0.036297765
0000e0 6d 7f a5 bc 04 7b 0b bd 40 fb 6e bd c5 a4 17 bd
       -0.020202363 -0.034052864 -0.05834508 -0.03702237
0000f0 57 dc 80 3e 9b 97 8a 3d fc e1 4c bd 27 a6 ab bd
       0.25168106 0.06767198 -0.050020203 -0.083813004

weight f4 [1, 64]
000000 5e ce 3e 3e e9 8b 80 bd c3 80 2d 3f 68 6c a9 3d
       0.1863341 -0.06276686 0.677746 0.0827263
000010 e5 4d 78 3f a9 69 66 3f ed 78 68 bc 35 a9 1d 3e
       0.9699386 0.90004975 -0.014188987 0.15396579
000020 3a 64 6e 3f 0f f4 c8 3d 91 14 3d bf 95 a3 60 bd
       0.93121684 0.098121755 -0.73859507 -0.054843504
000030 c3 dd 46 bd 64 d9 79 3d 23 f8 4e bf b7 a2 4a bf
       -0.048551332 0.060998335 -0.80847377 -0.79154533
000040 57 7e 28 be 52 0f 46 3f d6 aa e8 bd a6 1d d3 3d
       -0.16454445 0.77367127 -0.11360709 0.10308389
000050 77 48 ef bd e5 31 91 3c 0e fa 8a 3c 47 e0 9c bd
       -0.116837434 0.017723987 0.016964938 -0.07659965
000060 55 ea 72 be d5 96 8d bf 2a 67 48 be 9a 15 d1 3c
       -0.23722203 -1.1061655 -0.19570604 0.025522996
000070 fe e7 c5 3e 0c 22 6f 3f 28 4c 83 be 3a 9d dd 3c
       0.38653558 0.93411326 -0.2564404 0.02705251
000080 6d 7c dd bd 68 6c 88 3e 84 c8 4c b9 3b cb 02 3f
       -0.10814748 0.26645207 -0.00019529654 0.51091355
000090 6d 24 aa bc ad 0a 08 3f 26 1f e8 3e 20 27 89 bf
       -0.020769322 0.5314129 0.45336264 -1.0715065
0000a0 e5 1e 2e 3f 97 85 68 be 9c 13 20 be a9 37 58 bf
       0.6801589 -0.2270721 -0.1563248 -0.8445993
0000b0 6a e2 d7 be db 60 2f 3e ed ac 9c bd ce 33 e5 bd
       -0.42164928 0.17126791 -0.076501705 -0.111915216
0000c0 ca b3 40 bf cf 2d 53 3d f7 38 60 bd 11 aa f4 bd
       -0.75274336 0.05155736 -0.054741826 -0.119465
0000d0 dc 2a 1a bf 6a 32 37 bf 7b 82 6f bd 2a 06 7b 3f
       -0.6022165 -0.715613 -0.058474045 0.9805628
0000e0 bc fa 83 3d d6 78 eb bc 09 d4 18 bd 23 7b e0 3d
       0.06444308 -0.028744143 -0.037311587 0.109609865
0000f0 b5 bb 6f bf 88 54 25 3f d0 e9 75 3c 8e fb fe 3d
       -0.93645793 0.6458211 0.0150093585 0.12450324
